YOLOv5 temporarily requires wandb version 0.12.10 or below. Some features may not work as expected.
                 from  n    params  module                                  arguments
  0                -1  1      3520  models.common.Focus                     [3, 32, 3]
  1                -1  1     18560  models.common.Conv                      [32, 64, 3, 2]
  2                -1  1     19904  models.common.BottleneckCSP             [64, 64, 1]
  3                -1  1     73984  models.common.Conv                      [64, 128, 3, 2]
  4                -1  3    161152  models.common.BottleneckCSP             [128, 128, 3]
  5                -1  1    295424  models.common.Conv                      [128, 256, 3, 2]
  6                -1  3    641792  models.common.BottleneckCSP             [256, 256, 3]
  7                -1  1   1180672  models.common.Conv                      [256, 512, 3, 2]
  8                -1  1    656896  models.common.SPP                       [512, 512, [5, 9, 13]]
  9                -1  1   1248768  models.common.BottleneckCSP             [512, 512, 1, False]
 10                -1  1    131584  models.common.Conv                      [512, 256, 1, 1]
 11                -1  1         0  torch.nn.modules.upsampling.Upsample    [None, 2, 'nearest']
 12           [-1, 6]  1         0  models.common.Concat                    [1]
 13                -1  1    378624  models.common.BottleneckCSP             [512, 256, 1, False]
 14                -1  1     33024  models.common.Conv                      [256, 128, 1, 1]
 15                -1  1         0  torch.nn.modules.upsampling.Upsample    [None, 2, 'nearest']
 16           [-1, 4]  1         0  models.common.Concat                    [1]
 17                -1  1     95104  models.common.BottleneckCSP             [256, 128, 1, False]
 18                -1  1    147712  models.common.Conv                      [128, 128, 3, 2]
 19          [-1, 14]  1         0  models.common.Concat                    [1]
 20                -1  1    313088  models.common.BottleneckCSP             [256, 256, 1, False]
 21                -1  1    590336  models.common.Conv                      [256, 256, 3, 2]
 22          [-1, 10]  1         0  models.common.Concat                    [1]
 23                -1  1   1248768  models.common.BottleneckCSP             [512, 512, 1, False]
 24      [17, 20, 23]  1     94395  models.yolo.Detect                      [30, [[10, 13, 16, 30, 33, 23], [30, 61, 62, 45, 59, 119], [116, 90, 156, 198, 373, 326]], [128, 256, 512]]
YOLOv5s summary: 283 layers, 7333307 parameters, 7333307 gradients, 17.2 GFLOPs
Transferred 223/369 items from yolov5s.pt
[34m[1mAMP: [39m[22mchecks passed ✅
Scaled weight_decay = 0.0005
[34m[1moptimizer:[39m[22m SGD with parameter groups 59 weight (no decay), 70 weight, 62 bias
…
